mlp_model_weights.npz (npz, 39446 bytes, 4 tensors)

W1 f8 [64, 64]
0.004967141530112327 -0.0013826430117118466 0.006476885381006925 0.015230298564080254 -0.0023415337472333596 -0.0023413695694918055 0.015792128155073915 0.007674347291529088
-0.004694743859349522 0.005425600435859647 -0.0046341769281246226 -0.004657297535702569 0.002419622715660341 -0.01913280244657798 -0.01724917832513033 -0.005622875292409727
-0.010128311203344238 0.003142473325952739 -0.00908024075521211 -0.014123037013352916 0.014656487689215542 -0.0022577630048653567 0.0006752820468792384 -0.014247481862134568
-0.005443827245251827 0.001109225897098661 -0.011509935774223028 0.0037569801834567195 -0.00600638689918805 -0.002916937497932768 -0.006017066122293969 0.01852278184508938
-0.0001349722473793392 -0.010577109289559003 0.00822544912103189 -0.012208436499710222 0.0020886359500475542 -0.019596701238797757 -0.013281860488984306 0.0019686123586912354
0.007384665799954104 0.001713682811899705 -0.0011564828238824054 -0.0030110369558928878 -0.014785219903674275 -0.0071984420839470865 -0.004606387709597875 0.010571222262189157
0.003436182895684614 -0.01763040155362734 0.00324083969394795 -0.0038508228041631656 -0.006769220003059588 0.006116762888408679 0.01030999522495951 0.009312801191161986
-0.008392175232226386 -0.003092123758512146 0.0033126343140356396 0.009755451271223592 -0.0047917423784529 -0.0018565897666381712 -0.011063349740060282 -0.011962066240806708
0.012097774412108379 -0.008635834682563103 -0.006751107840696136 0.010968818261967416 0.03824697414896514 0.0050946423641652205 0.0024430934122214513 0.04119074006148151
0.007085656411785654 0.01715551729641116 -0.03974237414968651 -0.01701538497775851 0.010295337239542497 -0.005001436117170262 0.04838812024030361 -0.029448622870561155
-0.03185850577925651 0.0019410993226833635 -0.002351795257102709 0.0017285134395501162 -0.03229594092913668 -0.025407207770466445 0.01650687802423171 -0.011182867736142512
-0.04120492633104123 0.01925379482351206 -0.00567741664761066 0.023105459931940325 0.0033591794596135147 0.023493646397016652 0.02787221567811046 -0.014787491236229232
-0.030424210424971457 0.010527502435117282 0.013289893025276608 -0.02406412894578452 -0.004659977335642071 -0.004255103473381183 -0.0003195121658073643 -0.013461429189038927
-0.00718173372092785 0.030277662723614537 0.0009958054906210648 -0.02228170309737599 0.02952019361888629 0.022338221490221574 -0.007938001927550788 0.026663336012795445
-0.005601388078132279 0.0034622917935226817 -0.011143826693227343 0.017789174283367844 0.0433274525780826 0.016386668153206246 -0.027812052197423297 0.005874860946069338
0.04481509540703092 -0.05182978111707613 0.009562483321230844 -0.02854928433333045 -0.016808644009497498 0.04292035740867578 -0.045558944623621686 -0.01625467527841337
0.016527925799297283 -0.2501422693329288 -0.1321129776685829 0.08167889806320677 0.16838758764623935 0.04811354223621417 -0.054001696102808215 0.13128357328456747
0.06298098057776282 -0.073285347756104 -0.03302713015784289 -0.2570024197545939 0.022653872150091712 0.0009162977592572991 0.31368454183642125 -0.0773356289940859
-0.27452564036078925 0.013529481296350196 -0.08087548434316241 0.042998892619512064 -0.166971176131845 -0.09192846965377245 -0.008731960985617649 -0.20084746030664116
-0.26239972272966267 0.149789198282272 -0.00513449693389155 0.15446933679574967 0.08282011940174579 0.14044532216384578 0.27613351418180143 0.018449636322143532
-0.2454711372984885 0.13817104321660334 0.13098584638028934 -0.16422370404371175 0.07587418362277598 0.01686090105681342 0.11025143806464682 0.002724009920539106
0.04842871347607588 0.17604253454787203 -0.07515814280197194 -0.1412604128604057 0.23000124813600262 0.1339471379680073 0.1474033162866294 0.17688771698589928
0.05034744223264837 -0.1877443081064842 -0.12666729257275353 0.0701381119483624 0.38263925705562746 0.2149933410721927 -0.1561747665834572 0.03676325936413565
0.3067109230135191 -0.28864809113144035 -0.046815417916997684 -0.09483132098552524 -0.19779597385668787 0.1398208069884124 -0.33931385158020444 0.038535957199347486
0.07280588946192008 -0.30718226013558664 -0.10993639874852608 0.03284836576660863 0.034473114147776006 -0.022475818245577674 -0.06197820322924036 0.07122591227261568
0.1084845972998194 -0.03274993914300633 -0.01569320017027191 -0.1338095113079413 0.004772162299105229 -0.015534767597632232 0.29819272007858316 -0.08361751644622933
-0.26134361937805334 0.051267294683021186 -0.003150210719118411 -0.054156125615056394 -0.1412455519524617 -0.08915280219501631 -0.05184575222124196 -0.17819139215128266
-0.2038595865211745 0.12629805893608037 0.004700874365779369 0.11310704124467277 -0.05367941900904954 0.08038292306566147 0.187753830524876 -0.0480138978029079
-0.11118935541378432 0.2137558378327535 0.12200909809356672 -0.024458619123720174 0.054615321288081976 0.03611359582398219 0.008467048719573989 0.06699532034176392
0.026241452830279344 0.06696993234891951 -0.02038355535745663 -0.10234795704977985 0.0930296367917028 0.03221357893807397 0.07338232466062548 0.18363433576205895
0.08312626285435787 -0.15130334191611242 -0.10321647689817857 0.05534179088778139 0.2854026870625965 0.13532429283779515 -0.029203128543501405 -0.03833505005672022
0.18575762007663854 -0.2150195298137734 -0.014334870300473455 -0.020168976404828638 -0.08453359376207854 0.11691580182285911 -0.23109071595408026 0.08446654147026544
00000000: 64ae d2e6 6c58 743f 922f 1ca1 39a7 56bf
00000010: 3308 43ae 8187 7a3f 9ea6 ed11 1031 8f3f
00000020: 3337 bd5b 8d2e 63bf d477 5237 352e 63bf
00000030: 8054 d7c7 cf2b 903f 2d0a 2aea 226f 7f3f
00000040: 6e8e 6cb5 cb3a 73bf b54e ee86 2739 763f
00000050: 004f 9a65 49fb 72bf 9e47 a8c9 8713 73bf
00000060: 3362 d60d 51d2 633f 7ad0 27a3 8c97 93bf
00000070: 0c40 28c3 c4a9 91bf 379f d817 0308 77bf
00000080: c47c 0eeb 26be 84bf f58c 3b85 3ebe 693f
00000090: d3e3 aa48 a998 82bf f589 bdf0 89ec 8cbf
000000a0: b02f 657a 3804 8e3f 0695 9348 df7e 62bf
000000b0: 973a 4927 ad20 463f 928e 2fa5 c82d 8dbf
000000c0: 7b21 bc3f 444c 76bf ef2c ec3c 6e2c 523f
000000d0: 96b4 d56d 8592 87bf 0a1c a160 f5c6 6e3f
000000e0: 5542 c934 279a 78bf 1522 0fe5 42e5 67bf
000000f0: c1f2 68e3 59a5 78bf 61bc 05d9 a2f7 923f
00000100: 6a5e d7c6 eab0 21bf 7805 e193 73a9 85bf
00000110: 1909 c217 81d8 803f a92b 039c bc00 89bf
00000120: 9395 28e3 2f1c 613f 2171 b85b 2811 94bf
00000130: 5118 7123 8533 8bbf 9add 5eb6 7a20 603f
00000140: f3a0 a421 623f 7e3f f13a 80e8 b413 5c3f
00000150: b8a4 0bfa a3f2 52bf 015c 1528 9aaa 68bf
00000160: 2785 9a9f b647 8ebf 32c0 5215 1d7c 7dbf
00000170: 06f5 0bc9 25de 72bf e4a6 286f 5da6 853f
00000180: 330c 1fa5 3226 6c3f 134b 5a38 b40d 92bf
00000190: 001f e88f 888c 6a3f 15d6 35c0 c28b 6fbf
000001a0: 1168 85a8 0aba 7bbf 0177 0209 e40d 793f
000001b0: 9f43 8122 681d 853f 51ca 6604 9712 833f
000001c0: 5455 51b1 ea2f 81bf 8435 604d a754 69bf
000001d0: 4043 5b01 1923 6b3f cd4c 5781 aafa 833f
000001e0: e5a7 e68c 81a0 73bf 2d6e 1b15 1a6b 5ebf
000001f0: 7bca 8aaa 61a8 86bf 24f3 5f5a 917f 88bf
00000200: cf97 a2cb b7c6 883f 333c 481c aaaf 81bf
00000210: 2771 33b6 0ca7 7bbf 93f5 afdd d176 863f
00000220: 0d12 487e 1b95 a33f 6e28 6ca5 1ede 743f
00000230: af5f cfc9 8903 643f 6398 ece2 f316 a53f
00000240: 3df1 f268 d905 7d3f 5aaa ef46 3791 913f
00000250: 6002 7aca 1c59 a4bf b185 0828 7b6c 91bf
00000260: 9704 f6c5 b815 853f 5585 e6c8 627c 74bf
00000270: c3df e4e3 53c6 a83f 5fb0 90a0 c727 9ebf
00000280: 0db9 d710 c24f a0bf ac57 fd86 8fcd 5f3f
00000290: eca6 ea76 1244 63bf 315b 632c e951 5c3f
000002a0: f01a 2bf4 1789 a0bf 5dcb d3d9 5804 9abf
000002b0: 0ab1 17d5 2de7 903f 7b28 9e19 0be7 86bf
000002c0: 4144 0de6 cf18 a5bf 390f 5d4c 44b7 933f
000002d0: 6b6e 3ced 3341 77bf 981f 112b f5a8 973f
000002e0: 1934 74bd b584 6b3f 9982 c1eb b70e 983f
000002f0: 17da 37bb 888a 9c3f 39f5 fe79 e748 8ebf
00000300: c1a3 2033 8627 9fbf 17d0 5675 718f 853f
00000310: be86 493f bb37 8b3f afc3 505b 44a4 98bf
00000320: 9660 1b24 5716 73bf 66f6 25a4 cc6d 71bf
00000330: 2d66 854d 86f0 34bf 04a7 fe70 aa91 8bbf
00000340: ca04 5cf7 976a 7dbf fff9 c98c 1b01 9f3f
00000350: 163a fc00 b650 503f a2de 68c8 03d1 96bf
00000360: 4ca8 a8a8 8a3a 9e3f 5f56 01ab d4df 963f
00000370: 0134 6595 cc41 80bf f977 b530 a24d 9b3f
00000380: 127a b929 7bf1 76bf 5a69 b7c0 f35c 6c3f
00000390: 06fe 9819 93d2 86bf 0f63 1447 5337 923f
000003a0: b407 af0f 042f a63f e8d3 3baf aac7 903f
000003b0: 1685 7d3a c37a 9cbf 5a53 1cfa 3c10 783f
000003c0: b6d7 4712 01f2 a63f ce9e b6dd 6e89 aabf
000003d0: e8db 10c9 7e95 833f 57b8 240a 063c 9dbf
000003e0: 105c 3e01 4936 91bf 1848 ce36 a8f9 a53f
000003f0: f6bf 6582 8053 a7bf b75a e9ca 10a5 90bf
00000400: 9d62 1d53 b2ec 903f 3275 88b8 5402 d0bf
00000410: e55b 3bfb 13e9 c0bf 2c6d f483 e8e8 b43f
00000420: 6218 ff76 b98d c53f 186b cc94 56a2 a83f
00000430: bb53 613d 1ca6 abbf aa2e e16e e6cd c03f
00000440: 11fc d983 851f b03f b371 e31b d4c2 b2bf
00000450: 443d d197 eee8 a0bf a4af f546 ba72 d0bf
00000460: f9b4 0ca0 9332 973f be7c 6774 7606 4e3f
00000470: deae 1c54 6813 d43f 435e 588d 44cc b3bf
00000480: c5d5 d0fd d391 d1bf 6beb 983d 58b5 8b3f
00000490: aa52 4d78 41b4 b4bf 504a 216b f303 a63f
000004a0: f532 6ebe 4f5f c5bf d9f9 bbca 9f88 b7bf
000004b0: adc8 e7f6 0fe2 81bf 1d37 c09c 5eb5 c9bf
000004c0: 999d e634 28cb d0bf 2c4d f5dd 4a2c c33f
000004d0: f080 9906 e907 75bf 0fe3 e2b6 a6c5 c33f
000004e0: 2504 4808 b333 b53f 89f2 c8c0 1cfa c13f
000004f0: 8a62 2fe7 2bac d13f b2bd 8122 76e4 923f
00000500: 258b 6725 996b cfbf 3c4c efb7 96af c13f
00000510: c19a 38eb 24c4 c03f b740 0c47 4805 c5bf
00000520: e840 4591 7d6c b33f eefc 7aea fb43 913f
00000530: cc1a d330 7039 bc3f e8ea b9b0 a950 663f
00000540: fb5a 22f9 a5cb a83f 9145 4bd0 8f88 c63f
00000550: 36d1 5c65 903d b3bf 2c3a ba3a d214 c2bf
00000560: 9343 644f ae70 cd3f f191 7b08 2e25 c13f
00000570: 3cf2 62a3 1cde c23f 8e5f c2b7 41a4 c63f
00000580: 9927 a7d3 23c7 a93f 6feb a967 0108 c8bf
00000590: d352 8943 a236 c0bf b17a 0541 92f4 b13f
000005a0: dd0e ce5d 297d d83f c8a4 61dc e684 cb3f
000005b0: 60db 77e5 88fd c3bf c79f 5349 a2d2 a23f
000005c0: 86d1 ead9 26a1 d33f 5f97 ddd7 3579 d2bf
000005d0: 1add cdc1 30f8 a7bf 76f1 448e dd46 b8bf
000005e0: 5f5a 7fe3 6051 c9bf 4164 a8f0 a5e5 c13f
000005f0: 4279 e771 51b7 d5bf 5752 c827 fcba a33f
00000600: 8df4 3122 68a3 b23f bb65 4cc8 dfa8 d3bf
00000610: c5d2 43b5 ca24 bcbf 8ca6 6341 80d1 a03f
00000620: 1342 b6c3 75a6 a13f a72b 43a1 e603 97bf
00000630: 786d de67 9bbb afbf bab1 d683 dc3b b23f
00000640: 8fbf 8585 a5c5 bb3f 3762 219b 99c4 a0bf
00000650: cbeb 00d6 e011 90bf 850d 7b89 ab20 c1bf
00000660: d701 1890 f98b 733f e327 4336 b1d0 8fbf
00000670: 9723 29eb 9615 d33f 4c61 8222 f567 b5bf
00000680: 07cf 8f96 dab9 d0bf 7433 09f4 b43f aa3f
00000690: 70b0 7380 78ce 69bf b81a ca08 5aba abbf
000006a0: 74af 2b91 5514 c2bf f03b c6d1 b7d2 b6bf
000006b0: 0b19 74c4 868b aabf d4f6 dbbc f9ce c6bf
000006c0: c7d1 8a28 1218 cabf 24e1 56e8 882a c03f
000006d0: 7c37 9e5a 3941 733f 7adb 1743 95f4 bc3f
000006e0: 876b 396a de7b abbf 8451 b9a9 f993 b43f
000006f0: f6ca e648 5108 c83f a34a a211 4795 a8bf
00000700: cb5f 2ad5 e776 bcbf 870e 69ee 595c cb3f
00000710: d656 20fe fc3b bf3f c47f f724 ae0b 99bf
00000720: bdef 9515 8af6 ab3f dd8a 0232 7b7d a23f
00000730: a0f0 c00a 2c57 813f f058 daf5 9a26 b13f
00000740: a082 d216 0adf 9a3f 5402 4105 f124 b13f
00000750: e4c1 8b3e 6ddf 94bf 015a 57c8 7933 babf
00000760: 5541 944f cad0 b73f 8062 0d58 4c7e a03f
00000770: 5b97 851c 2fc9 b23f 2aa7 4275 5481 c73f
00000780: 40ee 6544 c347 b53f 1511 a76c e85d c3bf
00000790: c79e af20 656c babf 8620 ee5b c255 ac3f
000007a0: c0f5 c7a1 0944 d23f 31dc 0b72 4e52 c13f
000007b0: 6811 24c8 6ce7 9dbf 507a 91d4 a6a0 a3bf
000007c0: 5c21 9bdb e7c6 c73f 0996 468c c285 cbbf
000007d0: 5240 10b9 995b 8dbf a5cb 3518 2da7 94bf
000007e0: 1d19 9f5c fea3 b5bf f1fc 36a9 31ee bd3f
000007f0: c84b b76d 6194 cdbf a094 3869 999f b53f

W2 f8 [64, 10]
-0.5076484498998213 0.14217130910458242 0.6743892255019401 0.39024754129412315 -0.6014018386683168 -0.4061042687209494 0.23408289816328548 -0.037476629287204695
0.23309915233005768 -0.12051499172937033 -0.9327612947616356 0.9361646196249851 0.2218040136929332 -0.5617338826008874 0.5574702759353074 -0.29239725935396793
0.598575086983022 -0.09817882741011835 0.321610071646348 -0.7230749699985579 -0.007199031449653231 0.047687860526279116 0.004335912452814757 -0.5192577250816787
0.3424320292070195 0.059896099847458535 0.6886206186652285 -0.3164484435851646 0.1229269083349753 -0.46294138139874175 -0.6166949680482767 0.27894544380916936
-0.3358936813572468 0.26664596187195183 0.06559598954619775 0.21435346712760128 -0.7402429848380851 0.8130901787358416 0.008673606301495737 0.07994105536807834
-0.6049342375969091 0.21697867302343307 0.7346566312836699 -0.07821409361845331 -0.08754386722149456 0.40976760949776136 0.1908848220479719 0.1137887420642853
-0.1330940421582691 -0.7625088556998129 0.26942947707587017 -0.12482856925784837 -0.05858996954350034 -0.28523541226975363 -0.00857861379309187 0.4336443911225759
0.298395906681985 -0.5274579762538133 0.048598900229334295 -0.033359151033161165 0.33998470178312507 0.14908422589292505 -0.37830598825516115 0.07273544074351218
-0.17019165475587317 0.202050447216912 0.27943973365932695 -1.0209126135952231 0.05223616447601442 0.4562011633099776 -0.07368184100779761 -0.15304554939512055
0.495749835282012 0.22724650840824143 -0.48424940698030683 0.1728875104964623 0.5021576178535415 -0.5022714467336397 0.0348443853052865 -0.250708449434008
-0.22990934349767195 -0.005768524521050867 0.802897910252924 0.5399956964460193 -0.46912471002002654 -0.5891238305994355 -0.35676651674386867 0.2231519969903049
0.0019316724019692107 0.08258371401926161 1.1972817859001945 -0.7415202782655717 -0.4895642855456977 -0.6945997657332563 0.4628823455819446 0.5016409029422064
0.6633571006008429 -0.5093756492837901 -0.3403516195816365 -0.07187524287953928 0.44688148213102413 -0.32354068973179007 -0.7499498647725934 -0.3301593998781258
0.46208747468550904 0.23487579445177764 -0.26650967288633204 0.16904149280673422 0.05842978411949524 0.23661944667732177 0.5312419949528194 -0.08162399859814495
-0.15932133827290737 -0.5387538081602355 0.379217660041463 -0.29309975053705706 0.7160495871103645 -0.5444687686689799 0.03293848535342009 -0.09813528421126234
0.8428775683818566 -0.40857795670325747 0.159443866119567 -0.5418679783124314 -0.05624954450470205 0.28957523454570794 0.5292369763906372 -0.6699031798308829
-0.054506807075112206 -0.10335070805701697 0.6542127341886266 -0.3852562276627475 -0.2685148996484173 -0.7519713832892448 0.40614188710100324 0.38739618304385876
0.2415750747105235 -0.0032364294999521316 -0.07073721335699773 -0.21451488399265553 0.5549365292892557 -0.824881875402458 0.7698195749342892 0.5206962189297254
-1.0937571860032242 0.38925580808162236 -0.018466822565543013 -0.511347159349527 0.08968768182188931 0.12509611915777724 0.24720642668024956 0.24377416928830042
-0.14477277545128592 -0.07508770905340166 -0.029968196648463313 -0.033842244657412805 0.052562888559965944 -0.6266124767121295 0.217143349110943 0.1942885586882599
-0.3504205568751662 0.640336186428171 -0.2105363196389736 -0.7720851601925158 0.7925256475594964 -0.1797219224785102 0.5736792847840526 -0.040156244295683347
0.024074555792537356 -0.465482608176635 0.44581540586997914 -0.13027898075616662 -0.3033796407475788 0.43646734156260997 -0.21922771469279778 -0.08054810201170823
-0.35872631927663756 -0.37415661804781053 -0.05902357757317629 0.5719209450229346 0.09607477625306214 -0.19806026110052619 -0.3982288250062905 -0.10027774405228693
0.4578489981957055 -0.1581853700869393 -0.42890740204515837 0.6408014103612149 -0.20076551187040584 0.29838755001452627 -0.7912560888041114 0.6133077350297107
0.3630113707670112 -0.022206690165655227 0.19074815365993256 -0.032049052062502366 -0.4369442463734594 0.4138177791796703 0.19319244984420236 -0.49254134054274534
-0.6690261635955076 0.6407871995642456 -0.05921244492551369 -0.06502515863770704 0.3883480553842336 -0.43733232822357176 -0.10331798416746368 0.354383838851434
0.055775504196461434 -0.1820920354063913 -0.5863086061645444 0.4222254289528117 -0.23607914327496368 -0.09319576887002154 0.297432779296929 -0.16545100727009002
-0.33457790309894503 0.5586011499406253 0.17601309860428244 -0.04652167087209764 -0.43216478853728557 0.4600669551484093 0.5562947511921339 0.19828365285429425
-0.3263568249291824 -0.18375958843151174 0.26425546540057815 -0.42985274610737656 0.11564266479249082 -0.22132351147544368 -0.0911678719841417 0.45195529847935806
0.48036519744114614 -0.5168324840984404 0.2642951034817193 -0.38222679050248476 0.7633517515125807 -0.6089244338373951 0.19488558576589815 -0.536582029881943
-0.23349588574760527 0.39805381044590465 -0.8031916684318009 -0.9221418316524864 1.0600795316541254 0.042557952574231395 0.4438123117651204 0.5096540527679662
-0.04045677339126529 -0.4554578860276825 0.440450404885225 -0.5497067276249903 -0.3501912554618253 0.12460365386035167 -0.23379212632402077 0.45248955483907977
00000000: 1aea 45f6 a73e e0bf e84f 8461 ab32 c23f
00000010: 7ec7 89b6 9894 e53f 85f8 ccd2 d0f9 d83f
00000020: c5b5 9a11 af3e e3bf ce09 3bc2 9cfd d9bf
00000030: d204 15ac 6df6 cd3f a943 4e02 2330 a3bf
00000040: 52d0 fd69 31d6 cd3f 6ac5 270c 12da bebf
00000050: 173a ff36 2ed9 edbf 5ac5 1e81 0ff5 ed3f
00000060: 3362 77ec 1264 cc3f e56d da55 b9f9 e1bf
00000070: b44b 74e7 cbd6 e13f 7161 97fe a2b6 d2bf
00000080: a05b d9f0 8627 e33f 94d6 e264 3f22 b9bf
00000090: 0d42 f268 4295 d43f 4c66 961e 6e23 e7bf
000000a0: c6e6 394a bb7c 7dbf dace c012 8b6a a83f
000000b0: a237 eea2 88c2 713f 377a 6d60 c29d e0bf
000000c0: 1f03 a307 68ea d53f 096d 019c b3aa ae3f
000000d0: 1797 901b 2e09 e63f 6360 04f9 b040 d4bf
000000e0: 1edc 184b 2378 bf3f 70a6 44e3 d4a0 ddbf
000000f0: ee00 ec15 f7bb e3bf 63d4 a1fd 3dda d13f
00000100: e331 1736 487f d5bf 876e 7639 ba10 d13f
00000110: 7284 d915 e6ca b03f f872 8c35 ef6f cb3f
00000120: d022 5f0e 12b0 e7bf c4d0 cbb1 d504 ea3f
00000130: 4bf7 39bb 77c3 813f 1de3 695a 0477 b43f
00000140: 8eb3 d60b 9f5b e3bf ef55 4808 f5c5 cb3f
00000150: 7fe4 a49f 4e82 e73f 3773 2dbe d605 b4bf
00000160: f182 ae5e 4669 b6bf e430 70ec a139 da3f
00000170: 4ed9 fff1 e96e c83f 8caf d14d 4221 bd3f
00000180: ee5c 2ebf 3909 c1bf b983 c4f8 7866 e8bf
00000190: b2a1 2722 553e d13f 61a5 91de c3f4 bfbf
000001a0: 9b3d 2026 81ff adbf d104 d707 4c41 d2bf
000001b0: f9a1 7d0d aa91 81bf 6ac7 7d67 d4c0 db3f
000001c0: b466 1d25 eb18 d33f 7bc8 c08c efe0 e0bf
000001d0: bb8e 367e f4e1 a83f 9764 6b5d 7314 a1bf
000001e0: 1d20 d331 4fc2 d53f a1a0 4721 3115 c33f
000001f0: ccf5 db51 2a36 d8bf 64e7 4033 ca9e b23f
00000200: b442 9d13 d7c8 c5bf f82a 78ff c9dc c93f
00000210: be43 5131 57e2 d13f 2672 f776 a855 f0bf
00000220: 4f98 2fd4 b2be aa3f 8810 345d 6632 dd3f
00000230: 1704 7029 d0dc b2bf 8ea6 b91e ff96 c3bf
00000240: f826 6284 5dba df3f d32d dfe0 6916 cd3f
00000250: b69e 8539 f1fd debf 830d bc8d 2d21 c63f
00000260: 83c8 43da ac11 e03f 57f0 ad91 9b12 e0bf
00000270: 49bd ab8e 1fd7 a13f 8598 c973 9b0b d0bf
00000280: b604 af5b ab6d cdbf 411a a082 bca0 77bf
00000290: 8504 52f5 56b1 e93f b8ec 060e a547 e13f
000002a0: 0e04 d2a5 2306 debf 9200 3738 1ada e2bf
000002b0: 9341 6e3a 43d5 d6bf 3a23 8ea0 3e90 cc3f
000002c0: a239 c172 05a6 5f3f 231b e5ce 3424 b53f
000002d0: de9a 28f2 1028 f33f 1e16 0fbc 88ba e7bf
000002e0: 0d56 ed70 0555 dfbf 6e46 b449 293a e6bf
000002f0: ebe4 0a46 dd9f dd3f 4020 0f39 710d e03f
00000300: d1cc 94ab 383a e53f 43af 6129 ce4c e0bf
00000310: cc99 cf28 52c8 d5bf 1047 8f79 6a66 b2bf
00000320: 5d35 bcc9 b499 dc3f 4cb1 5402 e4b4 d4bf
00000330: 2bd0 dadb 96ff e7bf e862 3ce4 5421 d5bf
00000340: 6097 ea57 d792 dd3f 786d e5f7 6810 ce3f
00000350: 3753 4796 7e0e d1bf 05cf a2d1 26a3 c53f
00000360: 29a7 cf37 82ea ad3f bad1 89c8 8b49 ce3f
00000370: 69b1 5236 efff e03f 783b 8c74 4fe5 b4bf
00000380: 93f2 b740 a464 c4bf f198 54a0 783d e1bf
00000390: 1166 fc25 1a45 d83f 4e6f c174 25c2 d2bf
000003a0: 9681 ded2 e0e9 e63f 950d 64c4 496c e1bf
000003b0: 68d4 be2a 50dd a03f ad62 45dc 641f b9bf
000003c0: 2e6d d760 daf8 ea3f 340c 7a28 2426 dabf
000003d0: 0a03 4417 a868 c43f bc3f b383 fb56 e1bf
000003e0: 090c 2084 bdcc acbf f9bd 8690 6688 d23f
000003f0: 93d0 2d62 82ef e03f 8585 1bcb d86f e5bf
00000400: db0e 98f3 50e8 abbf a992 1f27 3175 babf
00000410: c8f0 3e8b 4fef e43f c213 99bc 09a8 d8bf
00000420: 99a2 1e1e 592f d1bf 7f2a 584a 2610 e8bf
00000430: 319c a88a 3afe d93f cb30 315c 19cb d83f
00000440: cb89 b49a eeeb ce3f 9a96 75db 4883 6abf
00000450: a47d fa81 d51b b2bf e578 a045 3975 cbbf
00000460: 31e6 9440 0ac2 e13f a455 bdac 6e65 eabf
00000470: 853a 45a9 5ca2 e83f 6387 ee1d 8ba9 e03f
00000480: a361 fa88 0780 f1bf 8f45 5f31 91e9 d83f
00000490: 2590 eb7b f7e8 92bf 07e1 c9b7 f45c e0bf
000004a0: 0571 479c c5f5 b63f 66d0 514e 2603 c03f
000004b0: def1 f9ce 75a4 cf3f f0f5 59f2 fd33 cf3f
000004c0: de0b f50f ea87 c2bf bf46 b7b6 f238 b3bf
000004d0: 48da 19a2 fbaf 9ebf 2fbb 0d4c c553 a1bf
000004e0: 715a b2de 85e9 aa3f 24d0 d79b 350d e4bf
000004f0: 43da 7c6f 5acb cb3f 70ca c68e 72de c83f
00000500: 21ff e757 4a6d d6bf 77f0 6450 a27d e43f
00000510: a91b bca7 daf2 cabf f01e 18f0 ebb4 e8bf
00000520: da4b 30bf 5e5c e93f 7eb0 b5c1 2001 c7bf
00000530: 2049 d1a8 945b e23f c4d5 f5f7 5b8f a4bf
00000540: 5dbf 2d17 00a7 983f 706d be90 77ca ddbf
00000550: 02ee 1057 3d88 dc3f 001b da4c fbac c0bf
00000560: fb1d d270 926a d3bf 6524 72b7 14ef db3f
00000570: ccbe 7d5c a70f ccbf 1e29 e5e7 cc9e b4bf
00000580: ba7c 603c 5ff5 d6bf 523a 8699 2ef2 d7bf
00000590: ca4a bd9e 5638 aebf 5cab 5827 2d4d e23f
000005a0: 2738 fa45 5b98 b83f 8730 08e4 095a c9bf
000005b0: 617f eec0 947c d9bf 96a2 385f cdab b9bf
000005c0: 5971 70e2 654d dd3f df51 9d0f 6b3f c4bf
000005d0: 3bf6 3208 3873 dbbf 4f6d 97f5 7181 e43f
000005e0: b5f4 d22d afb2 c9bf 1f24 3618 c818 d33f
000005f0: c095 054a f851 e9bf 20c4 0a8b 37a0 e33f
00000600: f24e 610b 943b d73f 3c3a 0ec0 59bd 96bf
00000610: 13f3 de7c 6f6a c83f e9d6 f3bc bb68 a0bf
00000620: 285c 1600 e5f6 dbbf 451f 0591 fd7b da3f
00000630: b81d f5ba 87ba c83f 22c8 631d cc85 dfbf
00000640: 21f4 998e a968 e5bf 105d 3a28 5481 e43f
00000650: ef4b f1f4 1751 aebf 4d23 c421 7da5 b0bf
00000660: 6dca 55cd b1da d83f b50a cdbb 40fd dbbf
00000670: c480 1623 0c73 babf 1043 868d 39ae d63f
00000680: 2828 e25c 9b8e ac3f f85c 77b4 ca4e c7bf
00000690: cae1 1a44 0ac3 e2bf da14 39ce bd05 db3f
000006a0: 031c d163 d737 cebf fe1c 6c8b addb b7bf
000006b0: 32ad f57e 2309 d33f 955b a8a4 7f2d c5bf
000006c0: eb8c f16f b969 d5bf 6518 d084 0fe0 e13f
000006d0: 6625 16e3 9887 c63f f9e0 e63d b0d1 a7bf
000006e0: 8206 5080 96a8 dbbf 3b4b 95ab bc71 dd3f
000006f0: 42d0 69a6 2acd e13f 2399 2bd6 5b61 c93f
00000700: 506c 79bc 07e3 d4bf c0e3 5127 6f85 c7bf
00000710: d3d2 6bc1 8fe9 d03f 5620 a817 b582 dbbf
00000720: 8d58 4ef7 c19a bd3f 8fbb cf2d 5454 ccbf
00000730: 5a28 9e14 c756 b7bf b941 8eea d5ec dc3f
00000740: 125d 49ab 4dbe de3f e0d2 1647 e489 e0bf
00000750: 579a 7c02 36ea d03f ec3e 375b 6776 d8bf
00000760: 44e8 02a7 606d e83f 4624 2218 4f7c e3bf
00000770: 5ec5 a9c8 02f2 c83f 0edb be13 ae2b e1bf
00000780: 98ac 8474 31e3 cdbf 3974 7ab0 b679 d93f
00000790: 43b2 8a03 bfb3 e9bf 2912 2796 2f82 edbf
000007a0: c1d0 79f4 15f6 f03f f869 fbec 27ca a53f
000007b0: 6bf9 25c1 6b67 dc3f 5731 1d04 164f e03f
000007c0: 5ffd 3b0d c0b6 a4bf a36d 4cd5 3826 ddbf
000007d0: ee7c 1fe5 5630 dc3f e24b 3190 3297 e1bf
000007e0: 2a70 6395 8869 d6bf 21d5 4a6a 06e6 bf3f
000007f0: 3fde 4f80 e6ec cdbf 4530 f4bf 96f5 dc3f

B1 f8 [1, 64]
-0.021927998613501122 -0.04060342208547667 -0.017915120382053628 0.016116281563001135 0.006563507046082385 -0.0019450267929394735 0.021260733566460518 -0.008414741269112467
-0.01945926288539297 0.012422779269929718 0.025267202093357262 -0.019888921064895624 -0.003546684333252696 0.026250893514847457 0.011110188523796272 -0.005760634443845341
-0.022334248190080275 -0.017347552266595147 0.026460381963617254 0.0031031450902490017 -0.00527380050165298 -0.004541983585950162 -0.02873948309290556 -0.03049545559937069
0.02937452680634771 0.015432620163665534 0.004749222808832014 -0.024192946606610952 0.007598925231214741 0.006716715958968189 0.006712324607940562 -0.037961677417102484
0.013628668110220439 0.011775965911100169 0.016327601738608415 -0.007525422744955378 0.02877479383924492 5.510341547652492e-06 0.011144000580984423 -0.008050475463040737
0.017383470216159023 -0.01379481151946535 -0.02281410072546816 0.001061178400232278 0.014990748806663626 -0.0026142080453063 -0.0026634058756589696 0.01891623909585579
-0.0149858421669062 0.0022846097829396063 -0.004150108019692571 -0.05254196889484048 0.041983705366989775 -0.002031588498060639 0.03320035615433564 0.01148979788145985
0.01874706982857643 -0.015853007522097805 -0.00106185464654535 0.008085101315329964 -0.022362400520357397 0.002029121766586635 0.0002858604160483572 0.00910150340020451
00000000: 1a9a a513 4b74 96bf f6f4 ecc3 f8c9 a4bf
00000010: 934c 9460 5758 92bf 7a20 fc58 c980 903f
00000020: 4184 c201 56e2 7a3f 600f cb9d 08de 5fbf
00000030: bf7b 6dad 5fc5 953f 05ed 7074 bf3b 81bf
00000040: 13c2 c906 21ed 93bf b3a8 8435 1d71 893f
00000050: b20c 9c3a a5df 993f 4916 1be6 c25d 94bf
00000060: 3ccb 0ea7 ef0d 6dbf 6556 8ca4 83e1 9a3f
00000070: 6d94 e542 f0c0 863f 86ff a588 7698 77bf
00000080: 6d83 3a06 cade 96bf 074b 9a86 8ec3 91bf
00000090: ea90 b12c 6e18 9b3f faf3 ac55 c46b 693f
000000a0: b236 e20a fb99 75bf 0fb8 5e6f 9d9a 72bf
000000b0: 8aaf f30f e26d 9dbf d656 e761 333a 9fbf
000000c0: 0cfd df1f 5b14 9e3f 4001 2837 239b 8f3f
000000d0: 525b 53ca eb73 733f d987 e029 09c6 98bf
000000e0: f822 a5f5 0c20 7f3f 9aaa 15b6 fc82 7b3f
000000f0: ed66 bdea 617e 7b3f b7f8 0386 b66f a3bf
00000100: 774c 92de 58e9 8b3f 3163 bc63 ff1d 883f
00000110: ae2e f5cd 2eb8 903f 7f22 4049 fad2 7ebf
00000120: 916d f4b9 2377 9d3f 88c4 b226 af1c d73e
00000130: 05e1 5570 aad2 863f cbe8 a586 c47c 80bf
00000140: f90e 47f0 f8cc 913f 300b a542 7440 8cbf
00000150: d89e 0362 945c 97bf d3ce 8ca1 e762 513f
00000160: 82f7 ef3e 78b3 8e3f d0ac e741 646a 65bf
00000170: 40c4 3824 91d1 65bf d6bc 1e51 c75e 933f
00000180: ea3b 14b0 e5b0 8ebf 9abb a889 2cb7 623f
00000190: c5da 8223 b4ff 70bf 793e 24ec c7e6 aabf
000001a0: fb40 0863 e37e a53f 2928 0fc5 8ca4 60bf
000001b0: 38fe cb17 a3ff a03f 73b0 1b91 f687 873f
000001c0: 5ffe 3c8f 6e32 933f 5611 6753 c53b 90bf
000001d0: 129d b8be bd65 51bf 5e9e dfed eb8e 803f
000001e0: d777 944b 2be6 96bf dd21 1174 609f 603f
000001f0: b4b5 5d23 f1bb 323f 2b24 961b cfa3 823f

B2 f8 [1, 10]
-0.03858644239560925 -0.010239951632364732 -0.0025316111661702707 -0.038099775241251306 -0.009421955274607203 0.06373605066399449 -0.04691520407377381 0.007717759433841072
0.04801278179952541 0.026328347886415977
00000000: 5ef6 5028 9ac1 a3bf db30 fd0a aff8 84bf
00000010: d6c6 4665 2cbd 64bf e1d0 4a51 d081 a3bf
00000020: 3d87 266e d14b 83bf 0a95 2d7d 0151 b03f
00000030: 5032 5d06 4505 a8bf c82d de45 a89c 7f3f
00000040: 72e6 3c9f 2195 a83f f2fb 8484 d1f5 9a3f
